2022-06-09 08:59:39,059 (asr:411) INFO: Vocabulary size: 126
2022-06-09 08:59:43,534 (lm:199) INFO: Vocabulary size: 126
2022-06-09 08:59:43,834 (asr_inference_streaming:141) INFO: BatchBeamSearchOnline implementation is selected.
2022-06-09 08:59:43,841 (asr_inference_streaming:147) INFO: Beam_search: BatchBeamSearchOnline(
  (nn_dict): ModuleDict(
    (decoder): TransformerDecoder(
      (embed): Sequential(
        (0): Embedding(126, 256)
        (1): PositionalEncoding(
          (dropout): Dropout(p=0.1, inplace=False)
        )
      )
      (after_norm): LayerNorm((256,), eps=1e-12, elementwise_affine=True)
      (output_layer): Linear(in_features=256, out_features=126, bias=True)
      (decoders): MultiSequential(
        (0): DecoderLayer(
          (self_attn): MultiHeadedAttention(
            (linear_q): Linear(in_features=256, out_features=256, bias=True)
            (linear_k): Linear(in_features=256, out_features=256, bias=True)
            (linear_v): Linear(in_features=256, out_features=256, bias=True)
            (linear_out): Linear(in_features=256, out_features=256, bias=True)
            (dropout): Dropout(p=0.0, inplace=False)
          )
          (src_attn): MultiHeadedAttention(
            (linear_q): Linear(in_features=256, out_features=256, bias=True)
            (linear_k): Linear(in_features=256, out_features=256, bias=True)
            (linear_v): Linear(in_features=256, out_features=256, bias=True)
            (linear_out): Linear(in_features=256, out_features=256, bias=True)
            (dropout): Dropout(p=0.0, inplace=False)
          )
          (feed_forward): PositionwiseFeedForward(
            (w_1): Linear(in_features=256, out_features=2048, bias=True)
            (w_2): Linear(in_features=2048, out_features=256, bias=True)
            (dropout): Dropout(p=0.1, inplace=False)
            (activation): ReLU()
          )
          (norm1): LayerNorm((256,), eps=1e-12, elementwise_affine=True)
          (norm2): LayerNorm((256,), eps=1e-12, elementwise_affine=True)
          (norm3): LayerNorm((256,), eps=1e-12, elementwise_affine=True)
          (dropout): Dropout(p=0.1, inplace=False)
        )
        (1): DecoderLayer(
          (self_attn): MultiHeadedAttention(
            (linear_q): Linear(in_features=256, out_features=256, bias=True)
            (linear_k): Linear(in_features=256, out_features=256, bias=True)
            (linear_v): Linear(in_features=256, out_features=256, bias=True)
            (linear_out): Linear(in_features=256, out_features=256, bias=True)
            (dropout): Dropout(p=0.0, inplace=False)
          )
          (src_attn): MultiHeadedAttention(
            (linear_q): Linear(in_features=256, out_features=256, bias=True)
            (linear_k): Linear(in_features=256, out_features=256, bias=True)
            (linear_v): Linear(in_features=256, out_features=256, bias=True)
            (linear_out): Linear(in_features=256, out_features=256, bias=True)
            (dropout): Dropout(p=0.0, inplace=False)
          )
          (feed_forward): PositionwiseFeedForward(
            (w_1): Linear(in_features=256, out_features=2048, bias=True)
            (w_2): Linear(in_features=2048, out_features=256, bias=True)
            (dropout): Dropout(p=0.1, inplace=False)
            (activation): ReLU()
          )
          (norm1): LayerNorm((256,), eps=1e-12, elementwise_affine=True)
          (norm2): LayerNorm((256,), eps=1e-12, elementwise_affine=True)
          (norm3): LayerNorm((256,), eps=1e-12, elementwise_affine=True)
          (dropout): Dropout(p=0.1, inplace=False)
        )
        (2): DecoderLayer(
          (self_attn): MultiHeadedAttention(
            (linear_q): Linear(in_features=256, out_features=256, bias=True)
            (linear_k): Linear(in_features=256, out_features=256, bias=True)
            (linear_v): Linear(in_features=256, out_features=256, bias=True)
            (linear_out): Linear(in_features=256, out_features=256, bias=True)
            (dropout): Dropout(p=0.0, inplace=False)
          )
          (src_attn): MultiHeadedAttention(
            (linear_q): Linear(in_features=256, out_features=256, bias=True)
            (linear_k): Linear(in_features=256, out_features=256, bias=True)
            (linear_v): Linear(in_features=256, out_features=256, bias=True)
            (linear_out): Linear(in_features=256, out_features=256, bias=True)
            (dropout): Dropout(p=0.0, inplace=False)
          )
          (feed_forward): PositionwiseFeedForward(
            (w_1): Linear(in_features=256, out_features=2048, bias=True)
            (w_2): Linear(in_features=2048, out_features=256, bias=True)
            (dropout): Dropout(p=0.1, inplace=False)
            (activation): ReLU()
          )
          (norm1): LayerNorm((256,), eps=1e-12, elementwise_affine=True)
          (norm2): LayerNorm((256,), eps=1e-12, elementwise_affine=True)
          (norm3): LayerNorm((256,), eps=1e-12, elementwise_affine=True)
          (dropout): Dropout(p=0.1, inplace=False)
        )
        (3): DecoderLayer(
          (self_attn): MultiHeadedAttention(
            (linear_q): Linear(in_features=256, out_features=256, bias=True)
            (linear_k): Linear(in_features=256, out_features=256, bias=True)
            (linear_v): Linear(in_features=256, out_features=256, bias=True)
            (linear_out): Linear(in_features=256, out_features=256, bias=True)
            (dropout): Dropout(p=0.0, inplace=False)
          )
          (src_attn): MultiHeadedAttention(
            (linear_q): Linear(in_features=256, out_features=256, bias=True)
            (linear_k): Linear(in_features=256, out_features=256, bias=True)
            (linear_v): Linear(in_features=256, out_features=256, bias=True)
            (linear_out): Linear(in_features=256, out_features=256, bias=True)
            (dropout): Dropout(p=0.0, inplace=False)
          )
          (feed_forward): PositionwiseFeedForward(
            (w_1): Linear(in_features=256, out_features=2048, bias=True)
            (w_2): Linear(in_features=2048, out_features=256, bias=True)
            (dropout): Dropout(p=0.1, inplace=False)
            (activation): ReLU()
          )
          (norm1): LayerNorm((256,), eps=1e-12, elementwise_affine=True)
          (norm2): LayerNorm((256,), eps=1e-12, elementwise_affine=True)
          (norm3): LayerNorm((256,), eps=1e-12, elementwise_affine=True)
          (dropout): Dropout(p=0.1, inplace=False)
        )
        (4): DecoderLayer(
          (self_attn): MultiHeadedAttention(
            (linear_q): Linear(in_features=256, out_features=256, bias=True)
            (linear_k): Linear(in_features=256, out_features=256, bias=True)
            (linear_v): Linear(in_features=256, out_features=256, bias=True)
            (linear_out): Linear(in_features=256, out_features=256, bias=True)
            (dropout): Dropout(p=0.0, inplace=False)
          )
          (src_attn): MultiHeadedAttention(
            (linear_q): Linear(in_features=256, out_features=256, bias=True)
            (linear_k): Linear(in_features=256, out_features=256, bias=True)
            (linear_v): Linear(in_features=256, out_features=256, bias=True)
            (linear_out): Linear(in_features=256, out_features=256, bias=True)
            (dropout): Dropout(p=0.0, inplace=False)
          )
          (feed_forward): PositionwiseFeedForward(
            (w_1): Linear(in_features=256, out_features=2048, bias=True)
            (w_2): Linear(in_features=2048, out_features=256, bias=True)
            (dropout): Dropout(p=0.1, inplace=False)
            (activation): ReLU()
          )
          (norm1): LayerNorm((256,), eps=1e-12, elementwise_affine=True)
          (norm2): LayerNorm((256,), eps=1e-12, elementwise_affine=True)
          (norm3): LayerNorm((256,), eps=1e-12, elementwise_affine=True)
          (dropout): Dropout(p=0.1, inplace=False)
        )
        (5): DecoderLayer(
          (self_attn): MultiHeadedAttention(
            (linear_q): Linear(in_features=256, out_features=256, bias=True)
            (linear_k): Linear(in_features=256, out_features=256, bias=True)
            (linear_v): Linear(in_features=256, out_features=256, bias=True)
            (linear_out): Linear(in_features=256, out_features=256, bias=True)
            (dropout): Dropout(p=0.0, inplace=False)
          )
          (src_attn): MultiHeadedAttention(
            (linear_q): Linear(in_features=256, out_features=256, bias=True)
            (linear_k): Linear(in_features=256, out_features=256, bias=True)
            (linear_v): Linear(in_features=256, out_features=256, bias=True)
            (linear_out): Linear(in_features=256, out_features=256, bias=True)
            (dropout): Dropout(p=0.0, inplace=False)
          )
          (feed_forward): PositionwiseFeedForward(
            (w_1): Linear(in_features=256, out_features=2048, bias=True)
            (w_2): Linear(in_features=2048, out_features=256, bias=True)
            (dropout): Dropout(p=0.1, inplace=False)
            (activation): ReLU()
          )
          (norm1): LayerNorm((256,), eps=1e-12, elementwise_affine=True)
          (norm2): LayerNorm((256,), eps=1e-12, elementwise_affine=True)
          (norm3): LayerNorm((256,), eps=1e-12, elementwise_affine=True)
          (dropout): Dropout(p=0.1, inplace=False)
        )
      )
    )
  )
)
2022-06-09 08:59:43,841 (asr_inference_streaming:148) INFO: Decoding device=cuda:1, dtype=float32
2022-06-09 08:59:43,925 (asr_inference_streaming:166) INFO: Text tokenizer: WordTokenizer(delimiter="None")
2022-06-09 08:59:44,494 (batch_beam_search_online:148) DEBUG: Start processing block: 0
…
